models/intent_classifier_best.pt (torch, 201907 bytes, 4 tensors)

fc1.weight f4 [128, 384]
000000 c8 29 c7 bc 0d 93 95 bd d0 bb 4c 3d 71 c8 26 3d
       -0.024311915 -0.07303438 0.0499838 0.0407185
000010 2f 2e a9 3c 1d e5 cb bd 99 2b e1 3d c4 77 90 3c
       0.020651905 -0.09955809 0.10994644 0.017635234
000020 42 e5 50 3d 08 19 3d bd 32 5e 82 bd 61 01 8f bd
       0.050999887 -0.04616645 -0.063656226 -0.06982685
000030 3b 92 6e bd 79 51 aa bc 0f 13 78 bd d1 6f 94 3d
       -0.058244925 -0.020790802 -0.06056505 0.0724789
000040 7c c2 74 3b f9 05 de bc d8 bf 09 be 8e cd 2d 3d
       0.0037347367 -0.027102457 -0.13452089 0.04243236
000050 b5 be 34 bd 0d a9 ab 3d 6c 27 57 bc e8 9b b6 3d
       -0.044127185 0.08381853 -0.0131319575 0.089164555
000060 be f8 8b bd 9c 91 b1 3d 2e 0f 15 bd 3e 08 cc bc
       -0.06834553 0.08670351 -0.03639143 -0.024906274
000070 e3 9b 7b 3d 57 12 71 bd 3c 4e 5a 3d ee a6 2a bc
       0.061427962 -0.05885538 0.053297266 -0.010415776
000080 c0 8e 8b 3d 1d 9b 34 bd 87 39 ca 3c 74 ae 8f 3d
       0.06814337 -0.04409324 0.024685634 0.07015696
000090 07 9c 9e bd 50 53 33 bc 11 78 55 3c 27 2d a5 bd
       -0.077446036 -0.010945156 0.013029114 -0.08065253
0000a0 3d 1c 97 3d e1 3c 9a 3d 7f 03 92 3c 01 2e 3d bd
       0.07378433 0.07531143 0.017823933 -0.04618645
0000b0 45 36 b9 bb 6d 2f a3 3b a8 32 d7 bc 47 a7 39 bd
       -0.0056522214 0.004980019 -0.026269272 -0.045325544
0000c0 06 fe 0e 3e 24 cf 17 bc 47 88 31 bd 14 3f 8e 39
       0.1396409 -0.009265695 -0.043342855 0.00027131347
0000d0 99 1e 55 bd ee 64 8f 3d c7 29 e6 3d b1 c9 be 3c
       -0.052031133 0.07001673 0.11238437 0.023289533
0000e0 9e ee 24 3c 8a c6 d6 bb f6 a4 0b 3d d2 62 68 3c
       0.010066656 -0.0065544294 0.034092866 0.014183717
0000f0 e9 ac 93 3c 5d 46 19 3d e7 2e a9 bd f1 b2 2e bc
       0.018026786 0.03742062 -0.08260899 -0.01066278
000100 ff 64 17 3d b3 15 9c ba 1b 14 8a bd a7 26 9b bc
       0.03696155 -0.0011908322 -0.06742116 -0.01893933
000110 49 ca 77 bd 87 8f 95 3d 1c 83 06 3c 0c 4b e0 3c
       -0.06049565 0.07302766 0.00820997 0.027379535
000120 26 9c 35 bd 63 9f 3e bc f9 15 06 ba 31 21 27 bd
       -0.044338368 -0.01163468 -0.00051149685 -0.04080314
000130 e3 e3 84 3d 82 1a bf bd b4 fb 1b 3d cd 14 c2 3d
       0.064887784 -0.09331228 0.03808184 0.09476624
000140 a7 45 83 bc 0b e7 39 3d ea 7f 55 bd 07 54 ed 3c
       -0.016024424 0.045386355 -0.05212394 0.028970731
000150 fb a3 e7 bd c4 5f 37 3d 54 a0 41 3d 10 52 91 3c
       -0.11310574 0.044769064 0.04727204 0.017739326
000160 6a 45 16 3c 6d 1f aa 3d 3e 43 9d bd af 20 73 3d
       0.009171823 0.08306775 -0.07678841 0.05935734
000170 d8 da a8 3c c0 2c 9e bd 91 ab 59 3c 0c 40 b7 3c
       0.020612165 -0.07723379 0.0132855335 0.022369407
000180 4c 8c 06 bc b9 e3 cb 3d 89 31 9a bd 7d 92 6c 3d
       -0.00821216 0.09955544 -0.07528979 0.05775689
000190 d6 2b 0c 3d 54 19 4f bc 53 d9 46 3d ed 28 92 3d
       0.034221493 -0.012640316 0.0485471 0.07136712
0001a0 f8 59 41 3d 3c 5f 8f 3d ef ee de bd 0d e9 90 3d
       0.04720494 0.070005864 -0.10885417 0.07075701
0001b0 51 e4 9d bd bb 31 96 bd 44 4c b2 bb 2b 77 ec bc
       -0.077095635 -0.07333704 -0.0054412205 -0.028865417
0001c0 f8 b7 a5 bc e5 3a a8 3d ab 26 7a 3d 02 d1 fa 3d
       -0.020229325 0.08214358 0.061072033 0.12246896
0001d0 1e f9 1e bc 41 9d 07 3d d5 1d a7 3d 1f 5c 2c 3d
       -0.009702949 0.033108953 0.08159987 0.04208004
0001e0 1e 4f 8c 39 82 56 fb bd 98 e3 03 3d 05 15 d0 3d
       0.00026761828 -0.122723594 0.032199472 0.10160259
0001f0 73 89 81 bd 59 be a3 bc 4c 93 d7 3c 74 1a a3 3c
       -0.063250445 -0.019988226 0.026315354 0.019910075
000200 36 0b 7a 3d 95 0a 9e bd 5a fc 1c 3d e5 ea 9e bc
       0.061045848 -0.07716862 0.0383266 -0.019399116
000210 ce 9b d7 3d 82 91 12 3d 9a 0a dc bc ac 78 96 bc
       0.10527764 0.0357833 -0.026860524 -0.018368088
000220 b3 b6 41 3d 0d 61 59 bc ad da 5f 3d 48 32 6d bd
       0.047293376 -0.013267768 0.054651905 -0.05790928
000230 bf db 56 bd 74 25 52 3d dd 78 b0 bc 15 13 3f 3c
       -0.05245566 0.05130525 -0.021542007 0.011662264
000240 ed 81 9b 3c 6a 7a 90 bb 95 f8 4c 3d dc 11 41 3c
       0.018982852 -0.004409124 0.050041754 0.011784043
000250 40 dc 1b bc 5f 05 f9 bb 5c fb 56 bd 76 1a 10 3c
       -0.009512961 -0.0075995172 -0.05248581 0.008795371
000260 b2 de c2 bd ee b0 82 3c d8 79 4d bc 53 c3 f9 bd
       -0.09515132 0.015953507 -0.012541257 -0.12195458
000270 86 cb 29 bc 06 9c 86 3d 1b 38 fa bc a6 89 c7 3d
       -0.010363465 0.06572728 -0.030544331 0.09743051
000280 0e af d7 3b 67 5c 95 bc 6d e0 d6 bd 74 9c 65 3c
       0.0065821474 -0.018232537 -0.104920246 0.014014352
000290 a4 4c 95 3c 11 1f 0f 3c d0 9a fe bd 8e 2c 7e bc
       0.018225022 0.008735434 -0.12431872 -0.015513552
0002a0 0d 51 0a bd 5e e1 4b 3c 2a 81 01 be 70 82 50 bc
       -0.033768702 0.012443868 -0.12646928 -0.012726411
0002b0 ff a5 c7 3d ee 1e 95 bc 28 60 e3 3c 74 e8 1f 3d
       0.09748458 -0.018203225 0.027755812 0.039040044
0002c0 1d 09 08 bd e2 ee 83 bd 2e 9f 97 bc c4 27 96 3c
       -0.033211816 -0.06442048 -0.01850852 0.018329509
0002d0 b3 62 66 3c 40 24 bf b8 7c 3d 77 bd 15 b0 98 bd
       0.014061618 -9.114342e-05 -0.06036137 -0.0745546
0002e0 11 bb 01 bd 2b 79 7e bc 93 9f 49 3d 59 02 d5 3c
       -0.03167254 -0.015531818 0.049224447 0.026002096
0002f0 4e 17 b8 bc ec 78 53 3d a1 9f 06 bd b1 b4 51 bc
       -0.02247205 0.051628992 -0.032867078 -0.012799428
000300 0a d8 a4 bd cc b8 59 bd 8f 73 04 3d 63 01 a7 ba
       -0.08049019 -0.05315475 0.032336768 -0.0012741502
000310 9d 29 27 3d 64 ee ac bc 8f 33 a9 bd 94 32 8b 3c
       0.04081117 -0.021109767 -0.08261787 0.016991891
000320 5c 46 7a 3d b1 64 b4 bc 83 c8 57 bd 66 62 80 bd
       0.061102256 -0.02202067 -0.052681457 -0.06268768
000330 ff d2 a3 3d b8 a1 70 bc 69 73 50 bc dc ca 16 bd
       0.07999229 -0.014686994 -0.012722828 -0.036814556
000340 f8 d8 05 3d f6 ef 99 3c d7 24 de bd 89 b2 84 3d
       0.03267762 0.01879118 -0.108468704 0.064793654
000350 75 d9 75 3d be 49 36 bc b3 6f 9a bd e6 19 90 bd
       0.060021836 -0.01112598 -0.07540836 -0.0703619
000360 ee 7e 94 bd a3 07 8d 3c b5 1e a6 3b e3 da ad 3d
       -0.072507724 0.017215556 0.0050695785 0.08489015
000370 db a0 38 3d 7c 4a 89 bd 6b 66 dc bd 40 90 8a 3b
       0.04507528 -0.0670366 -0.10761722 0.0042286217
000380 64 23 a4 3d 67 ae 63 3d 78 46 29 3d 5f 5d 18 3d
       0.08014563 0.055586245 0.04132697 0.03719842
000390 f3 cb 1f bd 05 e8 0f bd e8 8c 92 bc 4b 2b 1c 3d
       -0.03901286 -0.03513338 -0.017889455 0.038127225
0003a0 10 f8 df bb 09 21 b9 3d 04 d6 ad 3c 93 aa dc bd
       -0.0068349913 0.09039504 0.021220215 -0.10774722
0003b0 20 a2 8d 3d 79 5e de 3c df 8d 3e 3d e7 15 f0 3a
       0.069156885 0.027144657 0.046522018 0.0018317074
0003c0 e7 f3 b9 3d 33 33 13 3d 6c 52 ba bd cc c3 7b bd
       0.09079724 0.0359375 -0.09097752 -0.061466023
0003d0 25 e0 d0 bd 4b e0 76 3d a0 da 4d bd 96 eb 95 3c
       -0.10199002 0.060272496 -0.050257325 0.018300813
0003e0 94 70 82 bc b0 de 72 3d 14 56 b3 3d 10 a9 a8 3d
       -0.015922822 0.059294403 0.087566525 0.08235371
0003f0 38 ac 4f bd 9f 73 3f bc 45 4a 8c 3d c7 9b 2a 3c
       -0.05070135 -0.011685281 0.06850103 0.010413117

fc1.bias f4 [128]
000000 fe 1a ce 3d 41 12 e1 3d ff fe bb 3d 32 e4 60 3d
       0.10063742 0.1098981 0.09179496 0.054905124
000010 63 d9 ad 3c 97 fa 95 3d ed 38 bf 3d ef 80 92 3d
       0.021221822 0.07323187 0.093370296 0.071534984
000020 8d 43 79 3d 22 ca a4 3d 76 73 9d 3d 66 ab c7 3d
       0.060855437 0.08046366 0.07688038 0.097494885
000030 f9 64 dd 3d 02 3d e4 3d a9 ff 4e 3d d2 4f 17 3d
       0.10810275 0.11144449 0.050536785 0.036941357
000040 83 bf ea 3c ef fe a3 3c eb b6 47 3d 9d 63 34 3d
       0.028655773 0.020019023 0.04875843 0.04404031
000050 66 09 02 3e 41 f8 e9 3d 33 a7 3c 3d 4d e9 68 3d
       0.12698898 0.11424304 0.04605789 0.056863118
000060 22 41 c4 3d 18 ac 66 bd b7 bd a5 3d fe 18 fc 3d
       0.095827356 -0.056316465 0.08092826 0.123094544
000070 89 e9 e6 3d d6 80 e5 3d 4c 83 1e 3c 6a 78 39 3d
       0.11275012 0.11206214 0.009674858 0.04528085
000080 b0 cd e3 3d 0b bf 9d 3d 9f ac dc 3d da 4d c2 3c
       0.11123216 0.07702454 0.10775112 0.023718763
000090 10 c4 b6 3d a0 03 3d bd 0a b0 09 3e 36 5f ae 3d
       0.08924115 -0.046146035 0.1344606 0.08514254
0000a0 06 e7 82 3c 3d d2 d3 3d e1 5b ec 3d 22 ad 0d 3d
       0.015979301 0.10342834 0.11540962 0.03458894
0000b0 91 19 5f bd 46 8e c2 3d b7 95 04 3e 96 29 64 3d
       -0.05446774 0.09499793 0.12947737 0.055703722
0000c0 cb ac c8 3d 5e cb a7 3d 0c fa b5 3d 6d fc e7 3d
       0.09798583 0.08193086 0.08885583 0.11327443
0000d0 91 e5 e5 3d f4 4e 84 3d 7e 56 b0 3d 52 0a c5 3d
       0.11225427 0.064603716 0.08610247 0.09621109
0000e0 72 76 9e 3d 97 85 6a 3d 9e b7 50 3d 4d 04 89 3d
       0.077374354 0.057256307 0.05095636 0.066902734
0000f0 c5 19 71 3d 29 83 8e 3d 9b 09 82 3d 49 29 da 3d
       0.058862466 0.069586106 0.06349488 0.10652406
000100 8e be 29 3d 21 40 fe 3d a9 7a 44 3d 74 25 56 3c
       0.041441493 0.12414575 0.04796854 0.013070453
000110 bd 5c 67 3d c7 14 f9 3d ab 29 8b 3d 78 69 c3 3d
       0.056484926 0.12162166 0.06795057 0.09541601
000120 84 8c ae 3d f1 1d e1 3d 6e 4d d2 3c 6a e7 63 3d
       0.08522895 0.10992039 0.025671687 0.055640616
000130 fd 77 f2 3d 97 08 be 3d fe 49 2f bd 91 2c d7 3c
       0.11839292 0.09278982 -0.042795174 0.026266368
000140 b2 c1 d7 3d 49 54 46 3d 28 ee 56 3d 92 5c 82 3d
       0.10534991 0.048420224 0.052473217 0.06365313
000150 62 6c 07 3d 83 64 87 3d c0 7c a1 3d e2 2a b5 3d
       0.033062346 0.06610968 0.07885122 0.0884607
000160 12 26 6e 3d 21 85 64 3d 7a cc 93 3d 01 ad 78 3d
       0.058141775 0.055791024 0.07216735 0.060711864
000170 b7 23 9b 3d ce 5d 04 3d f9 62 69 3d 8f f4 ae 3d
       0.075751714 0.03231602 0.056979153 0.085427396
000180 27 9a a4 3d 2a a5 b7 3d 18 65 d2 3d 69 ab 06 3d
       0.08037215 0.089670494 0.10273188 0.032878313
000190 0f 57 3e 3d 0b 0a 8b 3d 06 cc 5e 3d 80 61 74 3d
       0.046469744 0.06789025 0.05439379 0.059663296
0001a0 4e b6 3a bd 83 25 0a 3d 22 95 55 3d ba 43 03 3e
       -0.045584016 0.03372718 0.052144177 0.12818804
0001b0 7c 7f e6 3d 01 30 e3 3d b6 b1 63 3d 17 72 9d 3d
       0.112547845 0.110931404 0.0555894 0.076877765
0001c0 a8 58 1f 3d e0 b5 43 3d 4c a4 4f bd 9e 94 d5 3d
       0.03890291 0.04778087 -0.050693795 0.10428737
0001d0 e2 27 cc 3d a7 b5 a5 3d b9 1a e7 3d 94 9f ba 3d
       0.099685445 0.08091288 0.11284394 0.09112468
0001e0 fc 71 45 bd ed 12 93 3d 2e 0d bd 3d 8b 53 d6 3d
       -0.048204407 0.07181344 0.092310295 0.10465153
0001f0 22 a0 98 3d 1d 6f 9d 3d 79 34 9a 3d 65 e4 4f 3d
       0.07452418 0.07687209 0.075295396 0.050754923

fc2.weight f4 [4, 128]
000000 1d 9a 17 bc da b3 47 3d c4 e2 08 bc 31 a2 0a bd
       -0.009253052 0.048755504 -0.008354846 -0.033846084
000010 5e 03 52 be c2 29 85 bd 09 9f 3a 3e 12 a1 55 3e
       -0.20509097 -0.06502105 0.1822473 0.20862225
000020 04 48 c2 bd 17 41 63 be 14 7f 74 3e 66 f1 c6 3d
       -0.09486392 -0.22192799 0.23876601 0.09714012
000030 dc 89 97 bb c4 7c 81 3d e5 a7 2a be be 53 2f be
       -0.0046245884 0.06322625 -0.16665609 -0.17121789
000040 3a c1 3b be 4c c1 45 be f4 f3 4f be 0e c7 7f be
       -0.18335429 -0.19312018 -0.20307904 -0.24978277
000050 df e6 0e 3e d8 ed 23 3e 26 ef 3f be 67 77 45 3d
       0.13955258 0.16008699 -0.18743572 0.048209574
000060 91 2e 07 bc 00 3e 1b bd 44 0c a7 3c 5b 56 47 3e
       -0.008250848 -0.037900925 0.02039159 0.19466536
000070 7c ef 06 bd e0 d4 11 3e 99 3e 42 be a5 83 1a be
       -0.032943234 0.14241362 -0.18969192 -0.15089281
000080 c5 b6 4d 3e 89 50 0d 3e 94 f0 03 3e 1f eb 43 bd
       0.20089252 0.13800253 0.12884742 -0.04783165
000090 e3 1d 61 be 86 10 b3 bd 60 97 27 3e 5e d0 cd 3d
       -0.21984057 -0.08743386 0.16366339 0.100495085
0000a0 cd 85 86 bd 27 75 a9 3d 18 12 4c 3e 33 5b 17 be
       -0.06568489 0.08274298 0.19928777 -0.14780883
0000b0 89 1e 99 bd c9 80 09 3e b5 47 ce 3d 9d 39 00 be
       -0.07476527 0.13428034 0.10072271 -0.12521978
0000c0 97 92 bf bd a1 1f 4c be 97 db e6 bd f8 c9 61 3d
       -0.09354132 -0.1993394 -0.11272352 0.055124253
0000d0 50 fd 12 3e 46 4e 38 be 58 33 31 be 0c dc 15 3e
       0.14354444 -0.17998609 -0.17304742 0.14634722
0000e0 ef 59 4a be a8 ab 27 be 00 c7 5f be bb b1 20 3d
       -0.1976087 -0.16374075 -0.21853256 0.039231997
0000f0 a0 71 56 3e 77 c6 3c be 75 01 85 bd 7c 81 df 3c
       0.20941782 -0.18435083 -0.064944185 0.027283423
000100 27 ff 2d be 65 01 32 3d 9e 29 64 be a5 55 72 be
       -0.16991864 0.04345836 -0.222815 -0.23665483
000110 43 05 56 3e ee 5b a4 3d 72 b7 a8 bd 47 d2 2d 3e
       0.20900445 0.08025347 -0.082381144 0.16974746
000120 45 3b a8 bd 09 9f c5 3d 39 09 05 be 68 8a f8 bd
       -0.0821443 0.09649474 -0.129918 -0.12135774
000130 f2 3d c9 3d 10 e2 f3 3d 00 09 ab bc 2b e1 41 be
       0.09826268 0.119083524 -0.020878315 -0.18933551
000140 9b 06 e4 bd e3 cb 16 be be fa 73 be ec a0 6f be
       -0.111340724 -0.14726214 -0.2382612 -0.2340123
000150 1e 6d d4 bd 0b e6 2d be 3c 8d 46 3d 1d f7 7b be
       -0.10372375 -0.16982286 0.048474535 -0.24605985
000160 b5 77 ee bb a4 f0 09 3e aa 0e 2a 3e 71 6e 4c be
       -0.007277454 0.13470703 0.16607156 -0.19964005
000170 b6 68 42 be 38 a2 1d be 3d 11 2d be a1 03 47 bd
       -0.18985257 -0.15393913 -0.16901107 -0.048587445
000180 eb 33 55 3e 4b b8 d8 3d ae c5 40 3e ab 2c d1 bd
       0.20820586 0.10582026 0.18825409 -0.10213598
000190 59 2a 41 be ee cf 29 be ab 8a 7a bd 26 58 4d be
       -0.1886381 -0.16583225 -0.0611674 -0.20053157
0001a0 e7 e1 65 3c 92 28 82 bb e2 25 44 bd a6 e1 1e 3e
       0.01403091 -0.0039721215 -0.04788769 0.15515766
0001b0 31 c4 64 3e 91 94 5d be 52 f8 0f be 36 b1 61 be
       0.22340466 -0.21638705 -0.1405957 -0.22040257
0001c0 be f5 2c bd 88 2c 93 3d da a4 77 3c 04 d9 49 bd
       -0.042226546 0.07186228 0.015114987 -0.049279228
0001d0 c9 59 46 3e 42 7a 36 be bc ec ae 3d e8 4d 4a 3e
       0.19370188 -0.17820075 0.08541247 0.19756281
0001e0 63 bd 9a bd cd 6c ac bd 79 98 31 3e 41 42 c9 3c
       -0.07555654 -0.084191896 0.1734332 0.024567725
0001f0 d2 03 2c bc 33 37 de bd e0 50 16 be 88 93 39 be
       -0.010498958 -0.10850372 -0.14679289 -0.18122685
000200 04 79 e8 3d 13 6d 9a 3d 54 d1 33 3e 1d 85 09 be
       0.11351207 0.075403355 0.17560321 -0.13429685
000210 b4 f5 9a 3d 6b d1 70 3d 24 6f 2c 3e c8 9f 7c be
       0.075663954 0.058793467 0.16839272 -0.24670327
000220 af a2 91 bc bc 3d 0a be c6 0f 5f be b1 a9 db 3d
       -0.017777769 -0.13500112 -0.21783361 0.107257254
000230 6f b5 0b 3e 83 0a fe 3d 7d 64 c3 3d 82 f1 35 3e
       0.1364343 0.12404349 0.09540651 0.17767909
000240 5e 9c 1d 3e 46 b1 61 3d 31 15 07 be 2c 46 7e 3c
       0.1539168 0.0551007 -0.13191678 0.01551966
000250 68 63 49 be 01 4f d4 3d 81 7e e0 3d 5a 34 3e 3e
       -0.19666827 0.10366631 0.10961629 0.18574658
000260 9c ca 27 be bf f8 ab bd 7c 43 71 be d9 7c 6f be
       -0.16385883 -0.08397054 -0.235609 -0.2338747
000270 ce 72 1d be 79 ac 03 be 05 73 3a 3e f6 3e 7b bd
       -0.15375826 -0.12858762 0.18207939 -0.06133934
000280 92 9e 5c be e7 88 14 3e d5 95 14 be a9 3d 43 3e
       -0.21544865 0.14505349 -0.14510281 0.1906649
000290 c2 cd 08 be fa c2 6a 3d 2c 90 bc bc 47 f6 1d be
       -0.1335974 0.05731485 -0.023017965 -0.15425979
0002a0 cb 0a 38 3e 34 ef 4b be fb b1 39 be 8d 57 6f be
       0.17972867 -0.19915468 -0.181343 -0.23373242
0002b0 38 ed 3a 3c fe 8d 64 be 06 fb 5d be ba 6a 3e 3e
       0.011409096 -0.2231979 -0.21677789 0.185954
0002c0 a4 c4 04 be cb 2b 2f 3d 25 93 1c 3e 59 a1 af bd
       -0.12965637 0.042766374 0.15290506 -0.085756965
0002d0 c6 38 53 be ea 9d 2e 3e ca 11 b6 3d 75 f5 5a be
       -0.20627126 0.17052427 0.08890112 -0.21382697
0002e0 50 fc 25 be 12 ec 52 3d 18 a9 35 3e 86 30 80 be
       -0.16209531 0.051494665 0.17740285 -0.2503702
0002f0 ad 3a 63 3d d6 57 a4 bd c0 31 0d 3e a8 41 58 be
       0.05547588 -0.08024566 0.1378851 -0.21118796
000300 f8 ec 48 be 9f e6 cc 3d 8b 0e 34 be 9e a0 34 3e
       -0.19621646 0.10004925 -0.17583673 0.17639396
000310 b0 ac 98 bd 34 96 25 be a6 a1 34 3e d4 a8 83 be
       -0.074548125 -0.16170579 0.17639789 -0.25714743
000320 df 18 c9 3d b3 4f 5b be 5e 4d 3f be da 58 41 be
       0.09819197 -0.21417122 -0.18681857 -0.1888155
000330 74 53 5e be 11 a1 4e be ed b8 81 3c 35 13 eb 3d
       -0.21711522 -0.2017863 0.01583525 0.11478273
000340 59 44 85 3c f1 3f a0 bd 98 71 79 3d f2 35 46 be
       0.016267942 -0.07824696 0.060899347 -0.19356516
000350 65 c1 6c bd 49 3f f7 3d f9 65 97 3d c0 7c 81 bd
       -0.057801623 0.120726176 0.073924966 -0.06322622
000360 14 38 2c 3e b8 08 4a be df 94 4f bd 07 f4 03 be
       0.16818267 -0.19729888 -0.050679084 -0.12886058
000370 c3 e9 43 be 91 e5 0c be ec 11 37 be 83 23 df 3c
       -0.19132142 -0.13759448 -0.1787793 0.027238613
000380 bd 1e 82 be 31 d3 f1 3d 47 ff e7 3c d1 75 3c 3e
       -0.25414076 0.1180786 0.028319968 0.18404318
000390 d7 9b 3b 3e a0 89 c5 3d c0 19 cc bd b8 8c 3b 3e
       0.18321167 0.096453905 -0.09965849 0.18315399
0003a0 f5 f7 47 bd f1 35 10 be e5 4c 00 be 51 31 4a be
       -0.048820455 -0.14083077 -0.12529333 -0.19745375
0003b0 55 3a 24 be c5 e3 0b 3d 59 47 f2 bd 54 4e 2c be
       -0.16037877 0.034152765 -0.11830015 -0.16826755
0003c0 a8 3b 47 3e 1a 64 64 be f9 cf 13 3d 7e 2a 80 3d
       0.19456351 -0.2230381 0.03608701 0.06258105
0003d0 9a 6b 9a 3d 47 66 97 3d e9 03 63 be 84 9c 75 be
       0.075400546 0.07392555 -0.2216946 -0.23985487
0003e0 dd 29 ab bc bd 15 ac bd 0c a4 00 3e e2 72 02 be
       -0.020893985 -0.08402584 0.12562579 -0.12739137
0003f0 8f 06 21 3e db 2e e1 3d c5 fc 53 be 40 c5 0a be
       0.15725158 0.10995265 -0.20701893 -0.13551807

fc2.bias f4 [4]
000000 0e 48 cd 3c d5 37 81 bd a7 2f c1 bd fb e5 04 3c
       0.025058772 -0.06309477 -0.09432917 0.008111472
